models/lstm_baseline.pt (torch, 75805 bytes, 6 tensors)

lstm.weight_ih_l0 f4 [256, 4]
-0.040686514 0.009199725 -0.063867845 0.017637406 0.12836164 0.028669555 0.04695786 0.049580306
0.03637682 -0.12460392 -0.15818869 -0.0151036205 0.16866094 -0.047825266 0.12519713 -0.031838804
0.14409609 -0.02473726 -0.091692515 0.13237745 -0.029586721 0.05653172 0.055049732 0.031008469
0.081227295 0.12517655 -0.13531278 -0.1008485 0.014431945 -0.08937711 0.15599316 0.010814054
-0.06884986 0.072726265 -0.07747433 -0.015079658 -0.15668397 -0.029416103 -0.10492785 -0.15833442
-0.03081937 0.055159017 -0.089809574 -0.07455847 -0.037095383 -0.018967481 -0.043820992 0.07926238
-0.02369841 -0.04525899 -0.035428725 0.03470393 -0.1507904 0.03713928 0.10755015 -0.07490022
0.11669753 -0.09776852 -0.114415176 0.055814892 -0.09070104 -0.15322098 0.037975047 0.12870677
-0.08069697 -0.053944144 -0.018063642 -0.04830843 -0.074812904 0.06540662 0.112785175 0.059778772
0.09634927 0.09547748 0.13231446 0.1457865 0.019018069 -0.05598021 -0.06480835 0.13250463
0.09488721 -0.025824644 -0.036894757 0.029839406 -0.05463606 0.0016989744 -0.1066119 -0.050782952
-0.11700878 0.08755847 -0.064492494 -0.008245479 0.056478538 -0.039443485 0.116041526 -0.06908938
0.034822892 0.06558783 -0.14912738 0.01916286 0.04137996 0.022224901 -0.1232788 0.058472022
-0.05299656 -0.10925222 -0.048241276 -0.13955739 -0.0070706736 -0.063385636 -0.025146239 -0.15110464
-0.03682889 0.110777184 -0.025129577 0.09275378 0.11028284 0.14185427 0.078891985 -0.12327095
-0.021253102 0.091999814 -0.08445929 -0.07676307 -0.11427866 0.06584245 0.054664586 -0.12382104
0.10203817 -0.016674006 -0.10310779 -0.087473065 0.013971717 -0.05348101 -0.028987302 -0.15662566
-0.06797483 0.057692595 0.026743876 -0.124527454 -0.10582708 -0.0982481 0.078538656 -0.07120241
-0.0025189836 0.002461846 -0.08324258 0.014230463 -0.06499396 -0.033168748 -0.05532818 0.09740132
-0.08681529 -0.024102535 0.15033132 -0.06464536 -0.01632467 0.06688268 0.021224702 0.13030897
0.09724639 0.062182125 0.11049711 0.11156079 0.057400905 0.122743316 0.0074527836 0.082427196
0.031216182 0.14330494 0.024863223 -0.017256366 0.01090795 0.12260843 -0.054080784 -0.010525755
0.063333385 -0.040153608 0.036024414 0.11304999 0.117044196 -0.050804686 0.032404006 0.009729569
-0.036305726 0.040895466 0.016234921 -0.030089974 -0.05012774 0.13357852 -0.06893481 0.051833343
-0.04614015 -0.033469465 0.010866016 0.0736362 -0.07396028 -0.07967966 0.13168366 -0.0045527844
-0.09444684 0.09344284 0.09424449 -0.034203313 0.030493721 0.0050267563 0.10646198 0.05429072
0.11272785 -0.080580465 0.043888483 -0.027769415 -0.10790721 -0.054324474 -0.03825257 -0.08258401
-0.029270863 -0.013671537 -0.061744153 0.021934576 0.12043179 0.04270229 -0.08220008 0.058602206
0.012985425 0.09798046 0.08250953 0.09440734 -0.16087693 0.09844927 0.070284724 -0.0054655285
0.033379126 0.041029762 -0.065197565 0.106527336 0.032129493 -0.048453704 0.08986767 -0.10606242
-0.089260355 0.104798354 -0.109874584 -0.1397185 0.08601822 -0.10082541 0.0046406956 -0.12333332
-0.065964766 -0.02869181 0.024029614 -0.112369865 -0.053739235 0.063709095 0.01062356 -0.005875459
00000000: e7a6 26bd 72ba 163c 25cd 82bd 527c 903c
00000010: 3c71 033e 6adc ea3c e356 403d b814 4b3d
00000020: dcff 143d 5730 ffbd 37fc 21be 2d75 77bc
00000030: 74b5 2c3e 6de4 43bd ad33 003e 6869 02bd
00000040: ed8d 133e cba5 cabc 49c9 bbbd f48d 073e
00000050: da5f f2bc ce8d 673d d47b 613d 7905 fe3c
00000060: 7f5a a63d 482e 003e 6f8f 0abe a989 cebd
00000070: f773 6c3c 590b b7bd acbc 1f3e 6e2d 313c
00000080: 2801 8dbd 82f1 943d ddaa 9ebd ab10 77bc
00000090: c371 20be 0afa f0bc 6ae4 d6bd 6b22 22be
000000a0: e778 fcbc 6cee 613d 15ee b7bd 1cb2 98bd
000000b0: 54f1 17bd b161 9bbc a47d 33bd 5154 a23d
000000c0: 2b23 c2bc 7e61 39bd b61d 11bd b525 0e3d
000000d0: cc68 1abe 5c1f 183d 4143 dc3d 4965 99bd
000000e0: 1dff ee3d dd3a c8bd 8152 eabd 289e 643d
000000f0: 78c1 b9bd f6e5 1cbe b98b 1b3d b5cb 033e
00000100: 7444 a5bd 89f4 5cbd 34fa 93bc 0fdf 45bd
00000110: 8237 99bd e8f3 853d eafb e63d 96da 743d
00000120: c452 c53d b289 c33d 717d 073e 0e49 153e
00000130: c8cb 9b3c 814b 65bd 3dba 84bd 4baf 073e
00000140: 3a54 c23d 348e d3bc f51e 17bd c571 f43c
00000150: 10ca 5fbd 1fb0 de3a 5757 dabd c901 50bd
00000160: 4da2 efbd db51 b33d a414 84bd 0c18 07bc
00000170: 0a56 673d 7e8f 21bd 2ea7 ed3d bc7e 8dbd
00000180: 73a2 0e3d ea52 863d d9b4 18be 6efb 9c3c
00000190: 087e 293d ff10 b63c 9879 fcbd 5c80 6f3d
000001a0: ec12 59bd a1bf dfbd a598 45bd 22e8 0ebe
000001b0: 1cb1 e7bb 54d0 81bd 7cff cdbc 2dbb 1abe
000001c0: e4d9 16bd 26df e23d 8bdc cdbc b2f5 bd3d
000001d0: f8db e13d 3f42 113e 1f92 a13d 7b75 fcbd
000001e0: fc1a aebc 666a bc3d fef8 acbd f535 9dbd
000001f0: ee0a eabd 68d8 863d f9e7 5f3d e395 fdbd
00000200: 63f9 d03d ed97 88bc 2d2a d3bd 1425 b3bd
00000210: a1e9 643c e70e 5bbd c776 edbc 7a62 20be
00000220: 6336 8bbd 124f 6c3d f915 db3c 4008 ffbd
00000230: debb d8bd 4d36 c9bd e0d8 a03d 92d2 91bd
00000240: 8815 25bb ec56 213b 167b aabd e326 693c
00000250: 8e1b 85bd f4db 07bd cd9f 62bd 587a c73d
00000260: 37cc b1bd ae72 c5bc 74f0 193e c964 84bd
00000270: 50bb 85bc c9f9 883d 6ddf ad3c b76f 053e
00000280: 1e29 c73d afb2 7e3d 4f4c e23d fc79 e43d
00000290: 361d 6b3d d960 fb3d 7b36 f43b 97cf a83d
000002a0: 14b9 ff3c 88be 123e f5ad cb3c 395d 8dbc
000002b0: 42b7 323c 211a fb3d d083 5dbd 3774 2cbc
000002c0: efb4 813d 1c78 24bd 568e 133d c186 e73d
000002d0: deb4 ef3d 9318 50bd 10ba 043d c568 1f3c
000002e0: 50b5 14bd 0182 273d 19ff 843c 407f f6bc
000002f0: bf52 4dbd cfc8 083e b22d 8dbd 334f 543d
00000300: 74fd 3cbd 4717 09bd 6007 323c 93ce 963d
00000310: 7d78 97bd 172f a3bd 15d8 063e 862f 95bb
00000320: 586d c1bd f65e bf3d 4103 c13d c618 0cbd
00000330: f8cd f93c 7db7 a43b bd08 da3d f25f 5e3d
00000340: dcdd e63d 5f07 a5bd 69c4 333d af7c e3bc
00000350: 75fe dcbd 5783 5ebd baae 1cbd ce21 a9bd
00000360: 73c9 efbc 95fe 5fbc 70e7 7cbd 24b0 b33c
00000370: f1a4 f63d 99e8 2e3d 8458 a8bd de08 703d
00000380: d2c0 543c fba9 c83d c2fa a83d a358 c13d
00000390: ecbc 24be c59f c93d 70f1 8f3d 2d18 b3bb
000003a0: 8db8 083d d30e 283d 4d86 85bd 012b da3d
000003b0: 379a 033d 6477 46bd 8a0c b83d 4137 d9bd
000003c0: 22ce b6bd 85a0 d63d ed05 e1bd 5e12 0fbe
000003d0: 522a b03d 8d7d cebd fa10 983b 2e96 fcbd
000003e0: 8918 87bd 160b ebbc c1d9 c43c 2c22 e6bd
000003f0: ac1d 5cbd ea79 823d 710e 2e3c ec86 c0bb

lstm.weight_hh_l0 f4 [256, 64]
-0.014576724 -0.11088916 -0.07565246 -0.029653586 0.07209183 -0.0040368163 -0.042730607 0.018893503
0.10964795 0.04089065 0.072328195 0.07446166 0.10816354 -0.13900223 0.0019065308 -0.11135049
-0.046173565 0.08600928 -0.100190796 0.019988034 0.04662714 -0.01535022 0.11926126 -0.06774399
-0.049407218 -0.050656095 -0.070735075 0.0796116 0.09723414 0.037482504 -0.100183174 0.075345136
0.01333999 0.138194 -0.05811757 0.040670626 -0.15835977 -0.13503847 0.041636977 0.10175684
0.09983289 -0.1746198 -0.050356507 0.063513875 -0.098021835 -0.101379395 -0.16212977 -0.018323733
-0.16836393 0.024822349 -0.106067955 -0.091913216 -0.06485513 0.049196184 -0.093543805 -0.0071001975
-0.022783674 -0.018326057 0.13910106 0.08715569 -0.062081613 0.041372262 -0.047333658 0.023548517
-0.03225808 -0.11821781 7.186222e-05 0.10556064 -0.0843943 -0.11631502 -0.05522044 0.13053128
0.006814376 -0.042677402 0.043479472 0.045442037 0.08355469 0.026673848 0.15757982 -0.07525877
0.0074784365 0.08121073 0.006489987 -0.038516887 0.009583121 0.0022146385 0.07695098 0.028305015
-0.019135213 0.13621971 -0.06573895 0.13642544 -0.013491996 0.027222823 -0.14151794 0.0029733102
0.010530017 0.14136836 0.012794097 -0.086845726 0.026256911 -0.12818187 0.031572163 -0.12671064
-0.09144167 -0.061846577 -0.03291971 -0.0076086223 -0.068414606 -0.06022966 -0.14497839 -0.13576943
0.07063807 0.05554895 0.002120593 -0.11690496 -0.077178545 0.08112738 -0.034482375 -0.04822675
-0.09994281 -0.025273886 0.011824904 -0.053811833 -0.0005957367 -0.058938116 -0.03425244 -0.1108041
-0.059342045 -0.10954586 -0.020088103 -0.013308784 0.098629065 0.08471503 -0.038082942 -0.11564703
-0.05344665 -0.043328136 0.124590285 -0.10483783 0.07712601 -0.12824592 0.061473217 -0.10136656
-0.011384652 0.07531675 -0.063626826 -0.022851102 0.046424784 -0.091346905 -0.038468584 0.11835853
0.07781365 -0.043476995 0.09528336 0.06235309 0.0028134473 0.0008314848 -0.085278705 -0.13703367
-0.02025036 0.13277721 -0.021708768 -0.0056519853 0.017469106 -0.03244853 0.10350806 -0.08458897
0.090677686 -0.01373208 0.051174067 -0.021181764 -0.12090342 0.008617526 0.13090083 0.14167112
-0.14301166 -0.055361774 -0.0885056 0.11366309 0.021950178 -0.08555555 0.03766781 0.06864035
-0.107073754 -0.059800684 0.064976946 0.116021655 -0.09614238 0.0038060553 0.11241794 0.05825551
0.099842735 -0.051803622 -0.08729672 0.0077371625 -0.05019074 -0.0941236 -0.112586714 0.15029986
0.012285727 0.019878915 0.074665144 0.01265845 -0.01086604 0.05791859 0.051944662 -0.11291159
0.056475393 -0.13128027 0.059728075 0.00056439673 0.12045249 0.15169159 -0.074835695 0.10571308
0.13332209 -0.0927293 0.012129387 0.042193424 0.14832574 0.03726414 0.11219637 -0.06310475
0.043483403 0.015825389 0.04385498 -0.06591178 -0.055622038 -0.07866206 -0.08044987 0.1393156
-0.103964046 -0.032311134 -0.02568765 -0.04649053 -0.09700688 -0.1162281 -0.048765387 0.08673753
0.06226172 0.05473568 -0.03361164 0.08440291 -0.007789615 -0.07812682 -0.010801392 -0.10393329
0.09212225 0.01721672 -0.06468415 0.048770085 -0.007655161 -0.014839327 -0.17746413 -0.12940893
00000000: 36d3 6ebc db19 e3bd adef 9abd 14ec f2bc
00000010: e2a4 933d 4547 84bb 4a06 2fbd 8cc6 9a3c
00000020: 1b8f e03d f47c 273d ce20 943d 5b7f 983d
00000030: d984 dd3d 9a56 0ebe 8fe4 f93a ba0b e4bd
00000040: 7e20 3dbd a225 b03d d530 cdbd f2bd a33c
00000050: 1afc 3e3d 7d7f 7bbc 3f3f f43d 5cbd 8abd
00000060: 395f 4abd c47c 4fbd 8ddd 90bd 680b a33d
00000070: b122 c73d 4187 193d d62c cdbd 8d4e 9a3d
00000080: f98f 5a3c ba82 0d3e b00c 6ebd 3e96 263d
00000090: 1029 22be 8647 0abe 898b 2a3d e465 d03d
000000a0: 3075 cc3d 88cf 32be a042 4ebd 9013 823d
000000b0: acbf c8bd 00a0 cfbd 5905 26be a71b 96bc
000000c0: 9867 2cbe 3d58 cb3c 283a d9bd ff3c bcbd
000000d0: c4d2 84bd f081 493d e593 bfbd c6a8 e8bb
000000e0: d4a4 babc 8720 96bc 8270 0e3e af7e b23d
000000f0: 4a49 7ebd f675 293d f0e0 41bd d2e8 c03c
00000100: 0c21 04bd 2e1c f2bd bcb4 9638 2d30 d83d
00000110: ebd6 acbd 9236 eebd d42e 62bd fea9 053e
00000120: 214b df3b 80ce 2ebd 8817 323d 6e21 3a3d
00000130: b91e ab3d 1d83 da3c 9b5c 213e 4521 9abd
00000140: ac0d f53b d051 a63d f5a9 d43b e2c3 1dbd
00000150: 8602 1d3c 7823 113b 7a98 9d3d ebdf e73c
00000160: 73c1 9cbc 2e7d 0b3e 25a2 86bd 1cb3 0b3e
00000170: 880d 5dbc 6602 df3c 14ea 10be dedb 423b
00000180: 1886 2c3c dec2 103e 559e 513c 2cdc b1bd
00000190: bc18 d73c 1c42 03be d051 013d 6fc0 01be
000001a0: c545 bbbd d652 7dbd d1d6 06bd c051 f9bb
000001b0: f51c 8cbd 60b3 76bd 3775 14be 2407 0bbe
000001c0: b1aa 903d 4c87 633d a6f9 0a3b de6b efbd
000001d0: c90f 9ebd 1d26 a63d 643d 0dbd 6a89 45bd
000001e0: d1ae ccbd 2e0b cfbc 3ebd 413c cc69 5cbd
000001f0: 372b 1cba 1869 71bd 494c 0cbd 43ed e2bd
00000200: a510 73bd 9459 e0bd ce8f a4bc 160d 5abc
00000210: 09fe c93d 137f ad3d dcfc 1bbd 5ad8 ecbd
00000220: e0ea 5abd d878 31bd 3129 ff3d 37b5 d6bd
00000230: 3ef4 9d3d e652 03be 57cb 7b3d 4599 cfbd
00000240: b186 3abc ab3f 9a3d c84e 82bd 3c32 bbbc
00000250: ea27 3e3d 1614 bbbd 3c91 1dbd f565 f23d
00000260: c35c 9f3d ef14 32bd ec23 c33d f465 7f3d
00000270: d061 383b 00f8 593a 9aa6 aebd 8e52 0cbe
00000280: 15e4 a5bc c0f6 073e 96d6 b1bc 4a34 b9bb
00000290: 5f1b 8f3c c0e8 04bd 09fc d33d fb3c adbd
000002a0: 39b5 b93d 85fc 60bc e69b 513d 6185 adbc
000002b0: 369c f7bd 8630 0d3c de0a 063e 3c12 113e
000002c0: a671 12be 07c3 62bd 6d42 b5bd 32c8 e83d
000002d0: dcd0 b33c c037 afbd 9049 1a3d 5093 8c3d
000002e0: 7c49 dbbd 90f1 74bd a212 853d c39c ed3d
000002f0: 4ce6 c4bd 036f 793b 603b e63d 549d 6e3d
00000300: 597a cc3d 0930 54bd 9fc8 b2bd 0688 fd3b
00000310: ce94 4dbd e0c3 c0bd dd93 e6bd 35e8 193e
00000320: 134a 493c 1bd9 a23c 0aea 983d 6365 4f3c
00000330: 7a07 32bc 0b3c 6d3d edc3 543d 313e e7bd
00000340: be52 673d 566e 06be 6da5 743d 06f4 133a
00000350: ccaf f63d 0a55 1b3e 7543 99bd 1980 d83d
00000360: 9685 083e dce8 bdbd 56ba 463c 03d3 2c3d
00000370: b4e2 173e 48a2 183d 36c7 e53d 103d 81bd
00000380: a71b 323d 3fa4 813c 48a1 333d c1fc 86bd
00000390: efd3 63bd 9319 a1bd e7c2 a4bd c0a8 0e3e
000003a0: 1aeb d4bd ae58 04bd e86e d2bc db6c 3ebd
000003b0: 8bab c6bd 0009 eebd 37be 47bd 72a3 b13d
000003c0: 2506 7f3d 8532 603d 5cac 09bd 6fdb ac3d
000003d0: 0740 ffbb f400 a0bd 52f8 30bc fada d4bd
000003e0: 97aa bc3d 140a 8d3c 2079 84bd 24c3 473d
000003f0: 25d8 fabb a620 73bc 28b9 35be c683 04be

lstm.bias_ih_l0 f4 [256]
-0.07637249 -0.09555096 0.025103673 0.048981987 0.043263875 -0.01419852 0.081436016 0.07294437
-0.020263156 -0.009058837 -0.12179408 -0.047186855 0.051606268 -0.12030979 0.08966906 0.08674534
-0.08508429 -0.112821184 -0.040303078 0.11085179 0.070213154 0.043044455 -0.05714743 -0.019709414
-0.0055178073 -0.052713167 0.078176714 0.037107754 -0.045605037 -0.017477771 0.006055543 0.11019503
0.13714767 -0.07506162 -0.090821244 0.084248714 -0.026142089 -0.0767482 0.02274796 -0.0017383476
-0.08048707 -0.037147354 0.09252481 0.13406815 -0.116571546 -0.08238821 -5.0478266e-05 -0.08744418
-0.06835888 -0.08623417 0.03364644 -0.013967949 0.02124552 -0.044278286 0.10038477 -0.0021961618
0.056152847 0.051249206 0.021542447 0.098624304 0.033929814 0.11805988 0.0064231893 0.05736631
0.035352465 0.11402277 0.042370338 0.03004794 0.0027343738 0.10828009 0.09085848 -0.111507386
-0.03825328 0.008944394 -0.04440335 -0.039801642 0.121279344 0.013014995 0.15025245 -0.07875501
0.09379792 0.034581073 0.058341436 -0.0471422 -0.04070254 0.073579356 -0.074920066 0.11180739
0.1090404 -0.056864306 0.1563309 -0.06732519 -0.07279233 0.118823186 0.13547729 -0.093209244
0.161444 0.06669561 0.026861964 0.037082046 -0.009532124 -0.003554822 0.10833136 0.12946069
0.050384004 -0.09117765 -0.056011755 -0.04549192 0.096588 -0.1343555 0.16541347 0.05501299
-0.009991233 0.036199104 0.091442086 -0.070690274 -0.023246225 0.00642025 -0.0013273961 0.07819603
-0.11074985 -0.074754685 0.068163894 -0.01111975 -0.011996446 -0.12089872 -0.0455247 -0.08610837
0.0067927586 0.015900556 -0.12213431 -0.10449401 0.0579357 -0.05780619 -0.0819075 0.02793562
-0.08280361 -0.0594452 -0.054823972 0.011005123 0.098095775 -0.03552868 -0.07722882 -0.039956227
-0.02572005 -0.002474936 -0.039169654 -0.13174973 -0.0022660154 0.097776935 -0.09351795 0.08252763
0.05970725 0.08707962 -0.002013686 0.018841835 0.119070314 -0.038446963 -0.03217369 -0.056124907
0.090715714 0.062006727 0.09776646 0.009493632 -0.09869062 -0.06098241 -0.07023412 0.09347639
0.051989663 -0.108483486 -0.017203014 -0.021421496 0.0055540637 -0.010419448 -0.047906812 0.08389621
-0.07969129 0.0088191135 -0.024038095 -0.04195077 -0.0047267564 -0.027032401 0.05865135 0.077061564
-0.004380996 -0.10191613 -0.079129525 0.06691759 -0.09409177 -0.11777853 -0.019661196 0.024495116
0.06496035 0.07159413 -0.075594924 0.10524359 0.10537911 -0.01508402 0.07373572 -0.08134541
-0.04969025 0.04297088 0.086859055 0.15055022 0.049946308 0.097884126 0.11748277 0.080359876
0.030953184 -0.045921203 0.0050551584 0.058485415 -0.02037233 0.095133044 0.12890466 -0.06161784
0.06900466 0.119242564 0.023972277 0.08818074 -0.12756628 0.101735204 -0.074792385 0.019999899
0.12945858 -0.0007631147 -0.015150513 0.123070605 0.033114623 0.065704 0.07464311 -0.04195514
0.0777276 0.018822694 0.0835055 -0.08970597 -0.04795454 -0.00166677 0.03317821 0.07368714
0.0685185 0.018819569 -0.022086054 0.098737925 0.012190568 0.06946448 0.070407696 0.059451643
0.021630952 0.07333509 0.055182863 0.016790926 0.022989694 0.102415115 0.11122012 -0.03171415
00000000: 2e69 9cbd 39b0 c3bd 38a6 cd3c 56a1 483d
00000010: 7635 313d e9a0 68bc edc7 a63d dc63 953d
00000020: ebfe a5bc 846b 14bc 2d6f f9bd 0147 41bd
00000030: 1861 533d fb64 f6bd 6aa4 b73d 8aa7 b13d
00000040: ac40 aebd cb0e e7bd d714 25bd 4306 e33d
00000050: eacb 8f3d 624f 303d 6c13 6abd a375 a1bc
00000060: b9ce b4bb c3e9 57bd 1d1b a03d 4dfe 173d
00000070: 59cc 3abd 8b2d 8fbc 946d c63b efad e13d
00000080: 7070 0c3e e8b9 99bd 7d00 babd 978a ac3d
00000090: ef27 d6bc 292e 9dbd ee59 ba3c 44d9 e3ba
000000a0: 68d6 a4bd d327 18bd a67d bd3d 2949 093e
000000b0: 10bd eebd 26bb a8bd a0b8 53b8 ef15 b3bd
000000c0: beff 8bbd 8a9b b0bd d9d0 093d d3d9 64bc
000000d0: 160b ae3c 265d 35bd 8896 cd3d 7bed 0fbb
000000e0: 8700 663d b0ea 513d c979 b03c 8afb c93d
000000f0: fdf9 0a3d 61c9 f13d 9e79 d23b f0f8 6a3d
00000100: bfcd 103d c584 e93d 858c 2d3d 1927 f63c
00000110: 2e33 333b f4c1 dd3d 0314 ba3d fc5d e4bd
00000120: 79af 1cbd 828b 123c 4ae0 35bd 0c07 23bd
00000130: 4e61 f83d d83c 553c c7db 193e 4f4a a1bd
00000140: 2019 c03d e2a4 0d3d 6ef7 6e3d 2e18 41bd
00000150: b5b7 26bd c6b0 963d b16f 99bd 46fb e43d
00000160: 9350 df3d 8cea 68bd 3515 203e cae1 89bd
00000170: 2514 95bd 9259 f33d 8fba 0a3e 7de4 bebd
00000180: 9351 253e b597 883d 9f0d dc3c 58e3 173d
00000190: a02c 1cbc 04f8 68bb d5dc dd3d 5891 043e
000001a0: 755f 4e3d 59bb babd 956c 65bd bc55 3abd
000001b0: eecf c53d 7d94 09be 2662 293e 4d55 613d
000001c0: 45b2 23bc 8345 143d fd45 bb3d 10c6 90bd
000001d0: de6e bebc f660 d23b 06fc adba 3d25 a03d
000001e0: d1d0 e2bd fc18 99bd 8399 8b3d 9d2f 36bc
000001f0: be8c 44bc c099 f7bd 1c78 3abd 9659 b0bd
00000200: ca95 de3b e241 823c 8e21 fabd f500 d6bd
00000210: fc4d 6d3d 2fc6 6cbd 1fbf a7bd 3ed9 e43c
00000220: f094 a9bd cf7c 73bd 1a8f 60bd d54e 343c
00000230: 70e6 c83d 8586 11bd 252a 9ebd 24a9 23bd
00000240: dbb2 d2bc 8932 22bb 5c70 20bd 67e9 06be
00000250: 6e81 14bb 463f c83d 5786 bfbd 3f04 a93d
00000260: 978f 743d cd56 b23d 0cf8 03bb 315a 9a3c
00000270: 23db f33d 907a 1dbd 8fc8 03bd 3be3 65bd
00000280: 29c9 b93d c4fa 7d3d c839 c83d 2e8b 1b3c
00000290: 4f1e cabd b1c8 79bd e8d6 8fbd 8d70 bf3d
000002a0: 1df3 543d 972c debd 56ed 8cbc 227c afbc
000002b0: ddfe b53b 55b6 2abc ef39 44bd c7d1 ab3d
000002c0: 3035 a3bd 0b7e 103c 8aeb c4bc 92d4 2bbd
000002d0: e8e2 9abb 0e73 ddbc 663c 703d 74d2 9d3d
000002e0: 758e 8fbb 67b9 d0bd a90e a2bd 170c 893d
000002f0: 30b3 c0bd df35 f1bd 8410 a1bc fba9 c83c
00000300: ef09 853d f19f 923d 83d1 9abd f489 d73d
00000310: 01d1 d73d f722 77bc c102 973d 6c98 a6bd
00000320: 0188 4bbd 3c02 303d 29e3 b13d d629 1a3e
00000330: 8094 4c3d 7977 c83d ce9a f03d b893 a43d
00000340: 8891 fd3c df17 3cbd bea5 a53b 678e 6f3d
00000350: dfe3 a6bc 1dd5 c23d 95ff 033e fd62 7cbd
00000360: 5152 8d3d 7235 f43d 8261 c43c 1b98 b43d
00000370: bca0 02be 8c5a d03d c02c 99bd d4d6 a33c
00000380: ca90 043e c30b 48ba db39 78bc 710c fc3d
00000390: 33a3 073d d28f 863d 7dde 983d 27d9 2bbd
000003a0: a62f 9f3d 0d32 9a3c ee04 ab3d c3b7 b7bd
000003b0: fb6b 44bd 8577 daba e0e5 073d 49e9 963d
000003c0: 6d53 8c3d 7f2b 9a3c d0ed b4bc 1c37 ca3d
000003d0: f3ba 473c 6543 8e3d e931 903d 9183 733d
000003e0: 6533 b13c b530 963d 6d07 623d 208d 893c
000003f0: e254 bc3c 04bf d13d 60c7 e33d b2e6 01bd

lstm.bias_hh_l0 f4 [256]
-0.029574871 0.1182323 -0.088665225 0.134338 0.11146837 -0.042931102 -0.07870155 0.109839834
0.11948766 0.029961389 0.024967501 -0.06332665 0.027263323 0.05286011 0.097019166 -0.1252497
0.1102272 -0.11107429 0.08252305 0.054983888 -0.04529314 -0.05716639 -0.0044507678 0.12974407
-0.05191826 0.14600371 0.010326449 0.052919134 -0.110440135 -0.048537843 0.16914013 0.07651318
-0.049365837 -0.07709433 -0.008044149 0.052685603 -0.07824635 0.08610854 -0.019394804 0.047963034
-0.0114399465 0.12030195 0.11372036 -0.0908186 -0.002455074 -0.1345109 0.103898965 -0.13488892
-0.112393424 0.001056209 0.060133107 -0.11852195 0.036489956 -0.08217887 0.0875607 -0.12432616
0.059403654 -0.08088699 0.07988801 0.06726172 0.11142215 -0.115217246 0.09440237 -0.013501034
0.1466106 0.11894179 0.034500174 -0.011620773 0.034816567 -0.018848214 0.1140239 0.12152496
0.16818175 -0.1153151 -0.079848394 -0.041718096 0.096434444 0.0945939 -0.042339165 0.09620228
-0.043428723 0.010291534 0.099142484 0.06432429 -0.047427747 0.04096136 0.03980009 0.1157718
-0.01216819 0.054895442 0.005940388 0.026344862 -0.082070835 0.01971876 0.003393975 0.08539385
0.13578928 0.017177032 -0.035043504 -0.10693935 -0.039751556 0.10103894 -0.08148333 -0.028537402
-0.1304886 -0.03886636 0.007907644 0.010512393 -0.07003187 -0.123605974 0.015871914 0.023983294
0.023984233 -0.02120485 0.046056338 0.028014308 0.10505776 0.029942064 -0.053441502 -0.12725136
-0.08870382 -0.009804311 -0.045474347 -0.05636343 0.10239154 -0.09369959 0.107367516 0.11927883
0.07701727 -0.098632455 -0.036424275 0.121034876 -0.10330512 0.000574688 -0.045619458 0.088978104
0.11141445 -0.04539154 0.08566838 0.01284123 0.005637136 -0.06669648 -0.037768774 -0.028005015
-0.10456487 -0.06244344 0.042587698 -0.07978098 0.13036187 0.028271452 0.11631604 -0.07132172
0.09238986 -0.063293345 0.019062193 0.0042021726 0.00708062 0.02129974 0.123209134 -0.104996406
-0.058841866 0.035127923 0.012466752 0.04100025 -0.046854608 -0.10778148 -0.118854195 -0.009297364
0.08006131 0.022080474 -0.09459464 0.09506024 -0.08695477 -0.06645436 0.030444529 -0.07683366
-0.10221574 0.05010458 -0.015350997 0.04375767 0.08195749 -0.12437928 -0.018372105 -0.06292534
0.0058735963 0.036386516 0.11519792 -0.022004947 -0.027434764 0.08481025 -0.03543479 -0.09950145
0.14451508 0.018956058 0.09927497 0.15821691 0.09897209 0.013865845 0.074911095 0.037202917
0.16976145 0.035897877 -0.0283804 0.09912874 -0.048706844 -0.09057345 -0.069633394 -0.0031269428
0.079042576 -0.074502595 0.12065774 0.10217987 -0.10640561 0.102359705 0.09046423 -0.069544315
-0.10618977 0.1699675 0.0633979 0.016354978 0.0943014 0.08074497 0.14313713 0.11373383
0.05692178 0.031397145 -0.018632272 0.012784681 0.019792171 0.13027838 -0.04276799 0.01360757
0.10546015 0.043178573 0.070852764 -0.023940533 0.011554934 -0.010460779 0.100101806 -0.11824931
0.08682943 -0.05092897 0.06357667 -0.025327997 -0.053012855 0.11294086 -0.024394816 0.031371105
0.07177832 0.06697988 -0.018537067 0.059957143 -0.013486088 0.06541002 0.12477117 0.040097237
00000000: 0047 f2bc c723 f23d 1d96 b5bd e78f 093e
00000010: 8749 e43d 86d8 2fbd 472e a1bd b5f3 e03d
00000020: f2b5 f43d 9671 f53c a588 cc3c 67b1 81bd
00000030: 5557 df3c d883 583d fcb1 c63d 7541 00be
00000040: ccbe e13d eb7a e3bd d801 a93d c936 613d
00000050: 4d85 39bd 4e27 6abd bfd7 91bb a1db 043e
00000060: 3ea8 54bd ff81 153e 4430 293c bcc1 583d
00000070: 702e e2bd 9ecf 46bd 1233 2d3e f1b2 9c3d
00000080: d533 4abd a2e3 9dbd 9bcb 03bc dccc 573d
00000090: 9f3f a0bd ad59 b03d dae1 9ebc e374 443d
000000a0: 9d6e 3bbc de60 f63d 38e6 e83d 1aff b9bd
000000b0: 4fe5 20bb 3abd 09be fbc8 d43d 5220 0abe
000000c0: 862e e6bd 7e70 8a3a 224e 763d a3bb f2bd
000000d0: 7e76 153d 654d a8bd 0653 b33d b79e febd
000000e0: 3f51 733d 14a8 a5bd 539c a33d 83c0 893d
000000f0: 4c31 e43d 05f7 ebbd 0856 c13d 7133 5dbc
00000100: 1721 163e c197 f33d 0e50 0d3d 0e65 3ebc
00000110: d19b 0e3d 9267 9abc 5d85 e93d 14e2 f83d
00000120: d637 2c3e 532a ecbd 8e87 a3bd 98e0 2abd
00000130: 6c7f c53d 72ba c13d d56b 2dbd b305 c53d
00000140: 51e2 31bd d29d 283c 370b cb3d 74bc 833d
00000150: 9943 42bd 19c7 273d 6b05 233d c419 ed3d
00000160: 175d 47bc 0bda 603d 96a7 c23b 2ed1 d73c
00000170: c114 a8bd 3d89 a13c 746d 5e3b f9e2 ae3d
00000180: 580c 0b3e d9b6 8c3c c789 0fbd 0503 dbbd
00000190: 87d2 22bd 81ed ce3d bbe0 a6bd 45c7 e9bc
000001a0: ce9e 05be 5532 1fbd 108f 013c 2c3c 2c3c
000001b0: de6c 8fbd 2125 fdbd d105 823c 9d78 c43c
000001c0: 957a c43c cbb5 adbc 92a5 3c3d 437e e53c
000001d0: 8628 d73d 0f49 f53c 7ae5 5abd 2e4e 02be
000001e0: 59aa b5bd 43a2 20bc 4f43 3abd 57dd 66bd
000001f0: a8b2 d13d 92e5 bfbd 80e3 db3d 7648 f43d
00000200: 3bbb 9d3d d0ff c9bd 9f31 15bd 22e1 f73d
00000210: a291 d3bd a9a6 163a 78db 3abd 273a b63d
00000220: 422d e43d 7bec 39bd e772 af3d 0664 523c
00000230: b9b7 b83b 2a98 88bd 6eb3 1abd c66a e5bc
00000240: 1b26 d6bd b1c4 7fbd 7070 2e3d 3664 a3bd
00000250: 957d 053e 8899 e73c 1b37 ee3d 1f11 92bd
00000260: e536 bd3d f19f 81bd 5128 9c3c 61b2 893b
00000270: 8c04 e83b cb7c ae3c 1255 fc3d 5b08 d7bd
00000280: 2b04 71bd 4ce2 0f3d 5941 4c3c e1ef 273d
00000290: 9eea 3fbd 89bc dcbd d469 f3bd f953 18bc
000002a0: 2ff7 a33d 1ce2 b43c d6ba c1bd f1ae c23d
000002b0: 5815 b2bd 3919 88bd ce66 f93c f75a 9dbd
000002c0: 7c56 d1bd 763a 4d3d c082 7bbc 3e3b 333d
000002d0: 54d9 a73d 90ba febd 1981 96bc 00df 80bd
000002e0: 4c77 c03b 070a 153d e3ec eb3d b843 b4bc
000002f0: dfbe e0bc ffb0 ad3d 1224 11bd 6bc7 cbbd
00000300: c3fb 133e bc49 9b3c ad50 cb3d 9d03 223e
00000310: e1b1 ca3d 922d 633c fd6a 993d 1662 183d
00000320: f2d5 2d3e a709 133d 037e e8bc 0204 cb3d
00000330: d480 47bd 937e b9bd f49b 8ebd 65ed 4cbb
00000340: 13e1 a13d d194 98bd 681b f73d ae43 d13d
00000350: 2feb d9bd f7a1 d13d 4f45 b93d 406d 8ebd
00000360: 067a d9bd f60b 2e3e c2d6 813d e0fa 853c
00000370: 1821 c13d 9e5d a53d 8a92 123e 48ed e83d
00000380: d026 693d 4b9a 003d b5a2 98bc d776 513c
00000390: 3123 a23c b267 053e 7d2d 2fbd 49f2 5e3c
000003a0: 7efb d73d 04dc 303d 411b 913d f01e c4bc
000003b0: e850 3d3c b063 2bbc 2d02 cd3d b22c f2bd
000003c0: a1d3 b13d e59a 50bd 7c34 823d a97c cfbc
000003d0: 0224 59bd 8a4d e73d a3d7 c7bc fd7e 003d
000003e0: 8300 933d bf2c 893d 0cdb 97bc 9f95 753d
000003f0: c1f4 5cbc b0f5 853d 0788 ff3d 003d 243d

fc.weight f4 [4, 64]
0.022815758 0.038554177 0.10173348 0.09973593 0.15534362 0.010148979 0.060870208 0.11310014
-0.07765443 0.10048998 -0.031455707 -0.02993707 -0.10472607 0.04256852 -0.09582717 -0.03879405
0.03718693 0.08520779 0.009739026 -0.0051875585 0.03383425 -0.04292675 -0.025585195 -0.084716685
-0.14023708 -0.16976105 0.020445406 0.06185679 0.07450051 -0.06426232 0.042248867 0.08204836
0.047983903 -0.08625373 -0.10283545 -0.15844166 -0.018921187 -0.09053372 -0.13035254 0.06750729
-0.050663177 0.046178356 -0.14740135 -0.03377456 -0.08008739 -0.0025096186 -0.013703196 -0.059942305
-0.09191432 0.08865616 -0.040930416 0.10261661 -0.0027503655 0.0705402 -0.020217665 -0.0899927
0.050044574 0.09786161 -0.11822699 0.12221059 0.10141919 0.065460734 -0.01281655 -0.066267446
-0.11009396 0.04795304 -0.10273868 -0.08734714 -0.10037822 -0.0768338 0.09784262 0.07474013
-0.023208015 -0.081134975 0.11343014 -0.119037636 0.071072355 -0.12424153 -0.055080723 0.055044267
0.019078337 -0.028496267 -0.006215748 0.069441736 -0.0940582 0.08369233 0.04328708 -0.092516184
0.11539526 -0.014215688 0.011573732 0.072142534 -0.023775244 0.139038 -0.12851526 -0.018365417
0.03947826 0.09948282 0.06525637 0.020108217 0.0004647906 0.02356035 -0.09332661 0.10205759
0.114969894 -0.005290877 0.06811786 0.06807087 0.020717466 0.09623068 0.09728817 0.06918877
0.08414457 0.01267469 -0.061961908 0.104576774 -0.07662564 0.08231157 -0.06459179 0.07589157
0.028450675 0.049010888 -0.13737123 0.037576374 -0.07918191 0.02323176 0.034845084 -0.02403303
-0.13606592 0.12995599 -0.034100644 -0.12000083 -0.14059524 -0.05331396 -0.010189274 -0.053862073
-0.14913946 -0.007823577 0.038045514 -0.08936728 -0.033741493 -0.043426547 -0.12826222 -0.044873916
0.12817642 -0.011826026 0.1515049 -0.09233006 0.008636012 0.02406412 0.08664082 -0.0993949
0.05316045 -0.0227709 0.098338336 -0.017114459 0.072991475 -0.032116704 -0.031610455 0.08267936
0.1491812 -0.048557084 0.055745777 0.026598379 0.09904366 -0.0011400074 -0.041430123 0.09745549
-0.12233956 0.008397548 -0.04382171 -0.112556025 0.052159645 -0.0059323655 0.16646218 -0.031091383
-0.044430967 0.10337979 0.0906746 -0.048748042 -0.04116867 -0.13314396 0.05994156 -0.084215626
-0.055506036 0.03647022 -0.043300543 0.029046873 0.008807769 -0.00709532 0.1337775 0.10628221
-0.01477469 0.06947705 0.11986652 -0.047773592 0.1472215 -0.049625814 0.07044561 -0.027382974
0.0019475396 -0.06645914 0.0023523986 0.13982591 0.12313846 -0.058267683 0.011448176 0.02442084
-0.05293147 -0.067758046 -0.12316612 0.10137081 -0.037611254 -0.06418528 0.02926577 -0.109259285
0.0695561 -0.1334327 -0.15131655 0.11688389 -0.11444092 0.045845363 0.0057579805 -0.009172064
-0.056020677 0.11968661 0.04094442 0.063975066 -0.093807265 -0.09398095 -0.016533649 -0.12231505
-0.028866557 -0.09717583 -0.06595312 0.12701653 0.0834049 -0.03432564 -0.030135756 0.026014747
-0.10104005 -0.028515477 -0.096676104 0.076177634 -0.054882545 0.062330414 -0.07575372 0.046495587
0.090919234 -0.023817979 0.06293238 -0.03861112 -0.098968826 -0.048846204 -0.11401798 -0.02530535
00000000: 1de8 ba3c fcea 1d3d a559 d03d 5a42 cc3d
00000010: 6612 1f3e e747 263c 0a53 793d 0ca1 e73d
00000020: 4909 9fbd b1cd cd3d b3d7 00bd 963e f5bc
00000030: 9f7a d6bd 545c 2e3d 0941 c4bd 83e6 1ebd
00000040: 5351 183d 6c81 ae3d 7090 1f3c 65fc a9bb
00000050: c895 0a3d f6d3 2fbd 0b98 d1bc f17f adbd
00000060: 4f9a 0fbe d7d5 2dbe 207d a73c 8c5d 7d3d
00000070: b993 983d f79b 83bd 260d 2d3d f808 a83d
00000080: c58a 443d cca5 b0bd 649b d2bd 883e 22be
00000090: 9b00 9bbc be69 b9bd 237b 05be 4341 8a3d
000000a0: 3184 4fbd 8425 3d3d 61f0 16be 3157 0abd
000000b0: dc04 a4bd 6a78 24bb 5f83 60bc 1086 75bd
000000c0: 933d bcbd 5c91 b53d a7a6 27bd a828 d23d
000000d0: 7a3f 34bb 6177 903d 849f a5bc 184e b8bd
000000e0: 8afb 4c3d ab6b c83d fe20 f2bd 8c49 fa3d
000000f0: ddb4 cf3d 4710 863d 82fc 51bc 3ab7 87bd
00000100: f178 e1bd 686a 443d a868 d2bd 0fe3 b2bd
00000110: 1993 cdbd 0a5b 9dbd b661 c83d 5a11 993d
00000120: bc1e bebc 182a a6bd 104e e83d 01ca f3bd
00000130: 628e 913d 5872 febd 539c 61bd 1976 613d
00000140: 2c4a 9c3c 0171 e9bc 79ad cbbb 7837 8e3d
00000150: 96a1 c0bd e266 ab3d cb4d 313d 2079 bdbd
00000160: 5a54 ec3d ebe8 68bc c09f 3d3c 77bf 933d
00000170: 4dc4 c2bc fa5f 0e3e 8199 03be 1273 96bc
00000180: f5b3 213d a6bd cb3d 22a5 853d fdb9 a43c
00000190: 23af f339 a301 c13c 0622 bfbd 9203 d13d
000001a0: 5675 eb3d 185f adbb 6081 8b3d be68 8b3d
000001b0: adb7 a93c 9714 c53d 053f c73d d8b2 8d3d
000001c0: fd53 ac3d 81a9 4f3c c5cb 7dbd 592c d63d
000001d0: e7ed 9cbd f892 a83d b348 84bd 0a6d 9b3d
000001e0: 6411 e93c a4bf 483d 0bab 0cbe afe9 193d
000001f0: 202a a2bd 8850 be3c b8b9 0e3d ebe0 c4bc
00000200: dd54 0bbe 2f13 053e 1ead 0bbd ffc2 f5bd
00000210: 33f8 0fbe bd5f 5abd eaf0 26bc 7a9e 5cbd
00000220: 04b8 18be 762e 00bc 9dd5 1b3d 3106 b7bd
00000230: 8534 0abd 09e0 31bd 2c57 03be b6cd 37bd
00000240: ae40 033e f3c1 41bc 1a24 1b3e 8b17 bdbd
00000250: 0f7e 0d3c 1e22 c53c be70 b13d 8e8f cbbd
00000260: c6be 593d 0a8a babc 9c65 c93d 9f33 8cbc
00000270: 8e7c 953d ce8c 03bd f779 01bd cc53 a93d
00000280: f5c2 183e cbe3 46bd af55 643d d8e4 d93c
00000290: 67d7 ca3d 4d6c 95ba a2b2 29bd be96 c73d
000002a0: 2a8d fabd df95 093c 657e 33bd c683 e6bd
000002b0: 5aa5 553d 4a64 c2bb 1075 2a3e 5bb3 febc
000002c0: 3ffd 35bd c9b8 d33d 9bb3 b93d 07ac 47bd
000002d0: 7ba0 28bd e456 08be 4885 753d 3e79 acbd
000002e0: 4c5a 63bd cc61 153d e95b 31bd b5f3 ed3c
000002f0: 764e 103c dc7f e8bb f8fc 083e 7daa d93d
00000300: 8b11 72bc fc49 8e3d 947c f53d 3eae 43bd
00000310: 3cc1 163e 7044 4bbd ca45 903d 4252 e0bc
00000320: 9644 ff3a bb1b 88bd b32a 1a3b 862e 0f3e
00000330: 0430 fc3d 18aa 6ebd 2191 3b3c 370e c83c
00000340: abce 58bd bbc4 8abd 853e fcbd 809b cf3d
00000350: 420e 1abd 9273 83bd c5be ef3c 55c3 dfbd
00000360: 6e73 8e3d 95a2 08be baf2 1abe d260 ef3d
00000370: 0060 eabd 59c8 3b3d 71ad bc3b 6d46 16bc
00000380: f075 65bd 411e f53d 56b5 273d 5c05 833d
00000390: 061e c0bd 1679 c0bd 9371 87bc 5080 fabd
000003a0: 8f79 ecbc 1f04 c7bd 6e12 87bd 9f10 023e
000003b0: 30d0 aa3d 0b99 0cbd 43df f6bc e11c d53c
000003c0: 16ee cebd 4a99 e9bc 1ffe c5bd 0503 9c3d
000003d0: 85cc 60bd 2d4e 7f3d c424 9bbd 2872 3e3d
000003e0: dd33 ba3d ec1d c3bc b1e2 803d b226 1ebd
000003f0: 2bb0 cabd f512 48bd 4282 e9bd 2a4d cfbc

fc.bias f4 [4]
0.08615846 0.010215687 0.05978174 -0.024826974
00000000: d973 b03d b25f 273c b3dd 743d f061 cbbc
